saved/ppo/HalfCheetah-v2.pt (torch_old, 57671 bytes, 12 tensors)

weight f4 [64, 17]
0	0x3f0e46c8	0.55576754
1	0xbc80b2ea	-0.015710313
2	0x3f348525	0.7051566
3	0xbeb3ff2a	-0.35155612
4	0xbf0b84ac	-0.54499316
5	0xbe2439c3	-0.1603766
6	0x3e398f56	0.18121085
7	0xbf2898ab	-0.6585795
8	0x3ecc2f4d	0.39879838
9	0xbfa95632	-1.322943
10	0x3e284e29	0.16436066
11	0x3ed322c0	0.4123745
12	0x3f82ce01	1.0219117
13	0x3de8e198	0.113711536
14	0xbea08545	-0.31351677
15	0x3d7cbc70	0.061703146
16	0xbf1cbd06	-0.61225927
17	0x3f0c0d22	0.5470754
18	0xbe8e716a	-0.27820903
19	0x3deb9684	0.11503318
20	0x3f8fb1da	1.1226151
21	0x3f0452db	0.5168893
22	0xbec06e0a	-0.37583953
23	0x3e6c45d1	0.23073508
24	0xbe452b39	-0.1925477
25	0xbe55ebe1	-0.20890762
26	0x3fb487ec	1.410398
27	0xbd48f4fa	-0.049061753
28	0x3e9e9cdd	0.30979052
29	0x3e28abd5	0.16471799
30	0xbf212b18	-0.6295638
31	0xbe332a92	-0.17496708
32	0xbf23031d	-0.63676625
33	0xbe149f96	-0.14514002
34	0xbd9619fe	-0.07329176
35	0x3db9ee5d	0.09078667
36	0x3e4f66fe	0.20254132
37	0xbd5b38f2	-0.053521104
38	0xbf154f94	-0.5832455
39	0x3dfd5c76	0.12371151
40	0xbea790dc	-0.32727706
41	0x3ebb4b66	0.36580962
42	0xbd6da010	-0.058013976
43	0xbf19824f	-0.5996446
44	0xbfa7def9	-1.3114921
45	0x3fd8eea0	1.6947823
46	0x3efc65b9	0.49296358
47	0xbe0024d9	-0.12514056
48	0x3ef77ab0	0.4833579
49	0x3f81960e	1.0123918
50	0x3eedb975	0.46430555
51	0x3d9436e4	0.07237032
52	0x3f37aa48	0.71744204
53	0xbdedcbba	-0.116111234
54	0x3c8637ff	0.016384123
55	0x3ea445ef	0.32084605
56	0x3ee3d7b5	0.4450051
57	0x3e68919a	0.22711793
58	0xbf37e04f	-0.7182664
59	0xbf3b7b13	-0.7323467
60	0x3f7872ea	0.97050345
61	0x3ead3d09	0.3383563
62	0xbf0b834a	-0.54497206
63	0xbf09ea44	-0.53873086
64	0x3ec752ed	0.38930455
65	0x3df542dc	0.11975643
66	0xbf508256	-0.81448877
67	0x3f158900	0.5841217
68	0xbbca34f3	-0.006170863
69	0x3e9a7cda	0.3017338
70	0x3f25ca66	0.6476196
71	0x3f2c9d6a	0.67427695
72	0xbe8996d2	-0.2687288
73	0x3f6e0e00	0.9299011
74	0x3c3eac5a	0.0116377715
75	0xbe32962c	-0.17440099
76	0x3ebfb4b2	0.37442547
77	0x3ece5a9a	0.40303499
78	0xbea8a3d5	-0.32937494
79	0xbf1854b5	-0.5950425
80	0xbf447376	-0.7673868
81	0x3f5df4c0	0.86701584
82	0x3f2d8297	0.6777739
83	0x3f0efa6a	0.5585085
84	0xbdb63f67	-0.08898812
85	0xbedd2ea6	-0.43199652
86	0x3ed2ae4a	0.41148597
87	0xbdb8f295	-0.09030644
88	0xbee4b61a	-0.44670182
89	0x3e6589d2	0.22415856
90	0xbf1ac19b	-0.6045167
91	0x3f48ddc4	0.7846339
92	0x3ed3756d	0.41300526
93	0x3c9a941f	0.018869458
94	0xbfbe3240	-1.4859085
95	0xbeefcd04	-0.46836102
96	0xbd8ee8b4	-0.06977978
97	0xbf03c6f2	-0.5147544
98	0x3f78697f	0.97035974
99	0xbe367d65	-0.17821272
100	0x3e01aa24	0.1266256
101	0xbe084357	-0.13306938
102	0x3e080091	0.13281466
103	0x3d899a14	0.06718841
104	0x3e6f1372	0.23347262
105	0xbed291f4	-0.41126978
106	0xbf0b7e91	-0.5449
107	0xbf28c3d4	-0.6592381
108	0xbe66e5df	-0.22548626
109	0xbf322d7f	-0.6960067
110	0x3f178622	0.59189045
111	0x3f67e053	0.90576667
112	0x3f0de44c	0.5542648
113	0x3f86c6d3	1.0529426
114	0xbf004c42	-0.5011636
115	0xbf2dfba0	-0.67962074
116	0x3de5a65a	0.1121337
117	0x3efab31b	0.48964772
118	0xbd762765	-0.060096163
119	0xbe15c460	-0.14625692
120	0xbf81d3b2	-1.0142729
121	0x3e2c287c	0.16812319
122	0x3f4531a7	0.7702889
123	0x3f5b1f79	0.855949
124	0x3e03aecf	0.12859653
125	0x3e9b754c	0.30362928
126	0xbd91a7b6	-0.071120664
127	0x3f380bfa	0.71893275
128	0x3e5bfa69	0.21482243
129	0x3d9f6af2	0.0778407
130	0x3e9b70d1	0.3035951
131	0xbd37484b	-0.04474668
132	0xbe40235d	-0.1876349
133	0xbd737c5e	-0.059444778
134	0xbe94d42b	-0.2906812
135	0x3f3ff217	0.74978775
136	0xbe257242	-0.16156867
137	0xbee7cdd5	-0.45274225
138	0xbf437238	-0.7634616
139	0x3d6de9f2	0.058084436
140	0xbfbf9c7c	-1.496963
141	0x3e49ea8b	0.19718377
142	0xbebbb9ea	-0.3666528
143	0xbec7958e	-0.3898129
144	0xbd7f5ce1	-0.062344436
145	0x3eea466d	0.45756856
146	0xbf335a1f	-0.7005939
147	0x3e0c5416	0.13703951
148	0xbe21b507	-0.15791713
149	0x3ee2c45a	0.4429043
150	0xbf4b3631	-0.79379565
151	0xbe2d9d73	-0.16954593
152	0x3ee7bfd8	0.45263553
153	0xbf0f5f41	-0.5600472
154	0x3f905e4c	1.1278777
155	0xbe6f9777	-0.23397623
156	0x3edec7c0	0.43511772
157	0xbe05d2df	-0.13068722
158	0xbe5fb576	-0.21846566
159	0x3dd97369	0.10617716
160	0x3e84e8fa	0.25958997
161	0xbec9dc24	-0.39425766
162	0x3d7296d3	0.05922587
163	0x3f5ea6b0	0.86973095
164	0xbdfe2973	-0.124102496
165	0x3f04c6fd	0.5186613
166	0x3fd32462	1.6495478
167	0xbe8b2e3b	-0.2718371
168	0x3f0d94ba	0.55305064
169	0xbf523834	-0.8211701
170	0x3f1ddb05	0.6166232
171	0xbe8bdd23	-0.2731715
172	0x3e247aee	0.16062519
173	0xbf3d192f	-0.7386655
174	0x3f258e8e	0.64670646
175	0xbf387c09	-0.7206426
176	0x3d9a32b7	0.07529204
177	0xbead5b46	-0.338587
178	0x3e39895e	0.18118808
179	0xbf7df466	-0.9920105
180	0xbefc32d9	-0.49257544
181	0x3f132616	0.5747999
182	0x3e05b2a2	0.13056424
183	0xbf9d1da0	-1.2274666
184	0xbe9ce999	-0.3064697
185	0x3ebaa02a	0.3645032
186	0x3f1f39fb	0.62197846
187	0x39fd2137	0.00048280667
188	0xbd8f0ee4	-0.06985262
189	0xbeda4ff1	-0.42639115
190	0x3ed60277	0.41798756
191	0x3f831cfa	1.0243218
192	0xbe28bb8c	-0.16477793
193	0x3ea2be89	0.31785992
194	0xbebe0944	-0.37116444
195	0xbf9c4508	-1.2208567
196	0x3ce536f9	0.027980315
197	0x3fbdb960	1.4822197
198	0xbe334410	-0.17506433
199	0xbf172433	-0.5903961
200	0xbc9e4a6e	-0.0193226
201	0x3f014d4b	0.50508565
202	0x3e6bca1c	0.23026317
203	0x3ece609b	0.4030808
204	0x3f3608c7	0.71107143
205	0x3e1691a7	0.14704
206	0xbf08e782	-0.5347825
207	0xbefe9da2	-0.4972964
208	0xbe944ea8	-0.2896626
209	0xbe8f62b9	-0.28005007
210	0x3edf428e	0.43605465
211	0x3cb88c22	0.022527758
212	0xbdf7a527	-0.12092047
213	0x3c0c49ed	0.008562547
214	0x3ff5d022	1.9204142
215	0x3ea378af	0.31928012
216	0xbdae11f4	-0.08499518
217	0x3f0a8f34	0.5412476
218	0x3d905fce	0.07049523
219	0x3f16e115	0.589372
220	0x3e9c7004	0.3055421
221	0x3f254609	0.6455999
222	0xbe74b2e8	-0.23896372
223	0xbe1b3984	-0.15158659
224	0xbfd13835	-1.6345278
225	0xbeb06b1a	-0.34456712
226	0x3e46f70b	0.19430177
227	0x3f5e247a	0.8677441
228	0x3f2d4064	0.6767638
229	0x3f1df517	0.617021
230	0xbddfcc7a	-0.10927673
231	0x3e062cb5	0.13102992
232	0x3e180905	0.1484719
233	0x3dfa850b	0.12232407
234	0x3bbb9436	0.005724455
235	0xbf03f134	-0.5153992
236	0xbf50e5c3	-0.8160059
237	0xbe71ff77	-0.23632608
238	0x3f6c9667	0.92416996
239	0x3f679935	0.9046815
240	0x3c6a8899	0.014314794
241	0xbdb6a5f4	-0.08918372
242	0xbe1d0009	-0.15332045
243	0x3e967054	0.29382575
244	0xbe8b3003	-0.27185068
245	0xbe2e52c0	-0.17023754
246	0x3f724014	0.94629025
247	0x3e4ff029	0.20306458
248	0x3f71031a	0.9414536
249	0x3f754cc7	0.9582028
250	0xbea152f3	-0.31508598
251	0x3f1cb99b	0.6122071
252	0xbd3f4053	-0.046692204
253	0x3e9a7082	0.30163962
254	0x3eb27143	0.34852037
255	0x3e231d26	0.15929088

bias f4 [64]
0	0xbebb01b6	-0.36524743
1	0xbf47d67f	-0.7806167
2	0x3ef80052	0.48437744
3	0xbd0fa6f9	-0.035071347
4	0x3ecd5073	0.4010044
5	0x3f3dbf68	0.7412019
6	0x3f4a2322	0.7895986
7	0xbea56626	-0.32304496
8	0xbdd335d8	-0.10313004
9	0x3ea39703	0.3195115
10	0x3e70233c	0.23450941
11	0xbe28feba	-0.1650342
12	0xbe05ae99	-0.13054885
13	0x3f14cda4	0.5812628
14	0x3e256193	0.16150503
15	0xbe803fb3	-0.250486
16	0x3ec993fe	0.39370722
17	0x3ea3877a	0.31939298
18	0xbe1e4ea9	-0.15459694
19	0x3e241455	0.16023381
20	0xbf014c46	-0.5050701
21	0xbf68584e	-0.9075974
22	0xbf7ac568	-0.9795747
23	0x3dae87a1	0.08521963
24	0xbe3961df	-0.18103741
25	0x3e3e268c	0.18569392
26	0xbd0672c5	-0.032824297
27	0x3f0fee56	0.56223047
28	0xbce2d13d	-0.027687663
29	0xbe99f5cd	-0.30070344
30	0x3ee10638	0.43950057
31	0x3e064643	0.1311274
32	0xbe240a9f	-0.16019677
33	0xb9c69855	-0.00037879
34	0x3d689319	0.05678091
35	0xbe054936	-0.13016209
36	0x3df2b5db	0.118510924
37	0x3f1e3d5e	0.6181239
38	0xbb9f5ab1	-0.004863106
39	0x3ed51cfe	0.41623682
40	0xbd92a452	-0.07160248
41	0x3ea71bb9	0.32638338
42	0xbf5b5ccd	-0.8568848
43	0x3dc9b2cc	0.09848556
44	0xbe0ff676	-0.14058861
45	0xbea2166a	-0.31657726
46	0xbe8cea36	-0.2752244
47	0xbeb2661e	-0.34843534
48	0x3e4d41f0	0.20044684
49	0x3c1a33e9	0.00941179
50	0xbf09751b	-0.53694314
51	0xbec7c823	-0.3901988
52	0x3eef06ca	0.46684867
53	0x3e909f8b	0.28246722
54	0x3f030acf	0.5118837
55	0x3ee82a6b	0.45344862
56	0xbdbe9a79	-0.09306807
57	0x3e5d423a	0.21607295
58	0x3f3e5f57	0.7436423
59	0x3ec59039	0.38586596
60	0x3e02c394	0.1276992
61	0xbef69a11	-0.48164418
62	0x3db7e9e0	0.08980155
63	0x3ef738ed	0.48285618

weight f4 [64, 64]
0	0xbe818580	-0.25297165
1	0xbf2ae149	-0.6675001
2	0xbe9c0409	-0.3047183
3	0x3e22b731	0.15890194
4	0xbe6e6578	-0.23280895
5	0x3dd0a18e	0.10187064
6	0x3f5f068c	0.87119365
7	0xbea4566f	-0.32097194
8	0xbe4f4cdd	-0.20244165
9	0x3e28ed45	0.16496761
10	0x3e23935d	0.15974183
11	0xbe9a97db	-0.30193982
12	0x3ed18be9	0.40927055
13	0x3cae7267	0.021294786
14	0x3f0a5174	0.5403054
15	0x3e889bf7	0.26681492
16	0xbe6be136	-0.2303513
17	0x3e2310d0	0.15924382
18	0x3d1f15c3	0.038839113
19	0xbedc87fc	-0.43072498
20	0xbe63be02	-0.22240451
21	0xbed0bacc	-0.40767515
22	0xbec00595	-0.3750426
23	0x3ebda538	0.37040114
24	0xbe7ce442	-0.24696448
25	0xbebf404c	-0.37353742
26	0x3d378faa	0.044814743
27	0xbeecd21c	-0.4625405
28	0xbe766be1	-0.2406459
29	0x3ed130af	0.40857455
30	0x3dfeb937	0.12437671
31	0x3eaefc7b	0.34177002
32	0x3e6d3cce	0.23167726
33	0xbf592827	-0.8482689
34	0xbe46de34	-0.19420701
35	0xbaaf162b	-0.0013358047
36	0x3cbdf9ca	0.023190398
37	0x3e687835	0.22702105
38	0x3e9fb7ee	0.31195015
39	0x3c2e389f	0.010633617
40	0xbd729948	-0.05922821
41	0xbf794225	-0.97366554
42	0xbf0fcba0	-0.5617008
43	0xbed4922b	-0.41517767
44	0xbe8761c3	-0.26441774
45	0xbe09fde7	-0.13475762
46	0xbee48798	-0.446347
47	0x3d53fde5	0.051755805
48	0xbe9ad86d	-0.30243245
49	0x3d0dd1f4	0.034624055
50	0x3ddc79af	0.10765397
51	0x3ef1be69	0.47215584
52	0x3d7b1fcc	0.06130962
53	0x3da8b9e8	0.08238584
54	0xbe8d0352	-0.27541596
55	0xbe0e47a1	-0.13894512
56	0xbf70ac0d	-0.9401253
57	0x3e89e25a	0.26930505
58	0x3f96dc95	1.1786066
59	0xbcf5ad51	-0.02998987
60	0xbec5778a	-0.38567764
61	0xbe9d9b6b	-0.30782637
62	0xbf3f9fdf	-0.7485332
63	0x3f24e38f	0.64409727
64	0x3e81e99e	0.25373548
65	0x3f78da42	0.97208035
66	0xbe1fd7ea	-0.15609708
67	0x3d83bc73	0.06432428
68	0x3e8e80f7	0.27832767
69	0xbf2ac999	-0.66713864
70	0x3e8206db	0.25395855
71	0x3dcd588f	0.10026657
72	0xbe69e399	-0.22840728
73	0xbef72445	-0.4826986
74	0xbcae2ebf	-0.021262525
75	0x3ea9ba2b	0.33149847
76	0x3ed7d35a	0.42153436
77	0xbc5a85fe	-0.01333761
78	0x3ebac9f2	0.36482197
79	0x3e6bde75	0.2303408
80	0x3e7775b2	0.24165991
81	0xbe4fa377	-0.202772
82	0x3e873e32	0.2641464
83	0xbedb8503	-0.42874917
84	0x3e9c2d18	0.30503154
85	0x3c865d38	0.016401872
86	0xbf505115	-0.8137372
87	0x3e7101a4	0.23535782
88	0xbec58b88	-0.38583016
89	0xbeaa61a3	-0.33277616
90	0x3ee30cf4	0.4434582
91	0xbf668004	-0.90039086
92	0x3ebb0d96	0.36533803
93	0x3f9b2629	1.212102
94	0xbd926abc	-0.07149264
95	0xbee8d5e2	-0.4547568
96	0xbe880aa2	-0.26570612
97	0xbdbb3cf8	-0.09142488
98	0xbefa3711	-0.48870137
99	0xbe4b186d	-0.19833536
100	0xbf45aa71	-0.772132
101	0xbdca626c	-0.09882054
102	0xbe019b2c	-0.1265685
103	0xbc37086a	-0.01117144
104	0x3d89da43	0.06731083
105	0xbfb9fd76	-1.4530475
106	0x3e0cc458	0.13746774
107	0xbd881023	-0.06643703
108	0x3e9ff4bb	0.31241402
109	0x3e10166c	0.14071053
110	0xbf1a9091	-0.6037684
111	0x3d91b7e6	0.07115154
112	0x3bf233b6	0.0073914183
113	0x3ead81bc	0.33888042
114	0x3f09ef2a	0.5388056
115	0x3da261b6	0.07928793
116	0xbf3193f7	-0.693664
117	0xbf51efc6	-0.8200649
118	0xbb342901	-0.002749026
119	0xbe01d839	-0.12680139
120	0xbf32a732	-0.6978637
121	0x3e96ea36	0.29475564
122	0x3e9ec18c	0.3100704
123	0xbb54c163	-0.00324639
124	0x3e9d8a89	0.30769756
125	0xbdbb3a83	-0.091420196
126	0xbbba35a7	-0.0056826654
127	0x3f387c69	0.72064835
128	0x3edf4938	0.4361055
129	0x3deb89c5	0.11500887
130	0x3e10b2b6	0.14130673
131	0x3d948db3	0.072535895
132	0x3d899039	0.067169614
133	0x3c46b7a7	0.012128747
134	0x3ea2a9d8	0.31770205
135	0xbe97c4ff	-0.29642484
136	0x3eaea8db	0.34113201
137	0xbe90ec55	-0.28305307
138	0x3e40955d	0.18806978
139	0xbf103161	-0.56325346
140	0x3ea57c5d	0.32321444
141	0xbde61e21	-0.112362154
142	0xbe422b91	-0.18961932
143	0x3eaabc53	0.33346805
144	0x3e543330	0.20722651
145	0x3ec57c92	0.38571602
146	0x3f3d0658	0.73837805
147	0xbe95601b	-0.29174885
148	0xbf02e438	-0.51129484
149	0x3cd0eee6	0.02550454
150	0xbdd2e117	-0.10296839
151	0x3dab7682	0.08372213
152	0xbe29adcd	-0.16570206
153	0x3eaf3bdf	0.34225366
154	0xbf206418	-0.6265273
155	0x3d9d0c13	0.076683186
156	0xbe9e5538	-0.30924392
157	0x3dbcbaaa	0.09215291
158	0x3c7312e9	0.0148360515
159	0x3d0525ca	0.03250674
160	0x3eda8eba	0.42687017
161	0x3f003104	0.5007479
162	0xbee13beb	-0.43991026
163	0x3db417ca	0.087936
164	0x3f8fa568	1.1222353
165	0x3d980652	0.074230805
166	0xbf08b538	-0.5340152
167	0xbf46eea1	-0.7770787
168	0x3ea2870d	0.3174366
169	0x3f00c88b	0.50306004
170	0xbf95ceed	-1.1703774
171	0xbf735f43	-0.9506723
172	0xbadad5b5	-0.001669577
173	0x3d3009d7	0.042978134
174	0xbe1d7264	-0.15375668
175	0xbd0b4cec	-0.034008905
176	0x3f04374e	0.5164689
177	0xbe14901e	-0.14508101
178	0xbf13a95a	-0.57680285
179	0xbe1390e3	-0.14410739
180	0xbe3aea87	-0.18253528
181	0x3f1dd1d9	0.6164833
182	0xbe2a102f	-0.16607736
183	0x3e71a1ff	0.23596953
184	0xbec1a1e8	-0.37818837
185	0x3e3c5613	0.1839221
186	0x3a9f907a	0.0012173795
187	0x3e7b4168	0.24536669
188	0xbea3bccb	-0.31979975
189	0x3e579a8e	0.21055052
190	0x3d66d456	0.056354843
191	0xbe470db9	-0.19438829
192	0x3d6e566a	0.05818788
193	0xbe903a24	-0.28169358
194	0x3e9afbd1	0.30270246
195	0x3d779c27	0.060451653
196	0x3d136f88	0.035995036
197	0x3e929e88	0.28636575
198	0xbf7b1b60	-0.98088646
199	0xbf27aa8d	-0.65494615
200	0xbe8767e9	-0.26446465
201	0x3ebf9485	0.37418
202	0xbf32608b	-0.6967856
203	0x3e7188f5	0.23587401
204	0x3ec3c4f7	0.3823621
205	0xbe2825b7	-0.16420637
206	0xbceaabe7	-0.028646423
207	0xbcad1325	-0.021127293
208	0xba5c0b23	-0.00083939935
209	0xbd8b4d50	-0.068018556
210	0x3da8719c	0.08224794
211	0xbc968dc9	-0.018378155
212	0xbe912ba3	-0.28353605
213	0xbdc79dbe	-0.09746884
214	0x3e94085d	0.2891263
215	0xbf424451	-0.7588549
216	0x3eaa3af9	0.33248118
217	0xbe9e2b2e	-0.30892318
218	0x3d9e21db	0.07721301
219	0x3f11b573	0.56917495
220	0x3e59df72	0.21276644
221	0xbf1e1b12	-0.61760056
222	0xbd1e849f	-0.038700696
223	0x3ccf556d	0.025309289
224	0xbec0a90c	-0.37628973
225	0x3efedc07	0.49777243
226	0x3e0fe3fd	0.14051814
227	0xbe2ea435	-0.17054828
228	0xbdc3ef09	-0.09567077
229	0x3e8ef7ae	0.2792334
230	0xbea8dae6	-0.32979506
231	0x3f6729fc	0.9029844
232	0xbee40b3d	-0.44539824
233	0x3f2206f2	0.6329185
234	0x3f6bd34e	0.921193
235	0x3f4e4243	0.8056986
236	0x3ec14467	0.377475
237	0xbe454eae	-0.19268295
238	0x3e937f6e	0.2880816
239	0xbf4225c3	-0.7583887
240	0xba24f9f4	-0.00062933494
241	0x3cb4417e	0.022003885
242	0xbedcf121	-0.43152717
243	0x3e819936	0.25312203
244	0x3e4da651	0.20082976
245	0x3edff96c	0.4374498
246	0xbf51e75e	-0.81993663
247	0xbf1fe137	-0.62453026
248	0x3e3ab1fa	0.18231955
249	0xbe0539c5	-0.13010319
250	0xbe96bcc8	-0.29440904
251	0x3e64506b	0.22296302
252	0x3da06919	0.07832546
253	0x3edaffe0	0.42773342
254	0x3efaf9e8	0.49018788
255	0xbcd23a70	-0.02566263

bias f4 [64]
0	0x3e9a7dc4	0.30174077
1	0xbe8dee07	-0.27720663
2	0x3f25c8b1	0.64759356
3	0x3e4df7dc	0.20114082
4	0x3eb044b4	0.34427416
5	0xbf000cce	-0.5001954
6	0x3e40c691	0.18825747
7	0xbeb474cc	-0.3524536
8	0xbe01ee6d	-0.12688608
9	0x3e9ee0d8	0.31030917
10	0xbf0cf338	-0.5505862
11	0xbd97a148	-0.07403809
12	0xbde6ff20	-0.1127913
13	0xbd6205ef	-0.05518144
14	0x3dd46915	0.10371605
15	0x3e8b1540	0.2716465
16	0xbe8a9d07	-0.27072927
17	0x3e754906	0.23953637
18	0xbed49a5d	-0.4152402
19	0x3f042c4e	0.51630104
20	0x3e44f568	0.1923424
21	0x3df7fb45	0.12108473
22	0x3f11ebb0	0.57000256
23	0x3d75b2f5	0.05998512
24	0xbf50cfa9	-0.81566864
25	0xbe6cf9d6	-0.2314218
26	0xbeb7ebc5	-0.35922065
27	0x3d0b54f0	0.03401655
28	0xbf819281	-1.0122834
29	0xbea5d5eb	-0.3238977
30	0xbe99aa6d	-0.30012837
31	0x3e37fd6f	0.17967771
32	0xbe420970	-0.18948913
33	0x3e312b02	0.17301562
34	0x3e6cf545	0.23140438
35	0xbd5f163d	-0.054464567
36	0x3ecfc259	0.40577963
37	0x3c72f40e	0.014828695
38	0xbdf0aa10	-0.11751187
39	0xbe962bb0	-0.29330206
40	0xbdd9c94c	-0.106340975
41	0x3e9a3c81	0.30124286
42	0x3f1a27b6	0.60216844
43	0xbeeb1aad	-0.4591879
44	0x3f1b1454	0.60577893
45	0xbe5e911d	-0.21735044
46	0xbd92602c	-0.071472496
47	0xbeb13932	-0.3461395
48	0xbe2373ab	-0.15962093
49	0xbee42ab2	-0.44563824
50	0x3e880ddb	0.2657307
51	0xbe778770	-0.24172759
52	0x3e5c3c52	0.21507385
53	0xbe51852b	-0.20460956
54	0x3e9b2572	0.30302006
55	0xbed5b82c	-0.41742074
56	0xbd1967e6	-0.0374526
57	0xbea47c2d	-0.3212599
58	0x3e17e0e2	0.1483188
59	0x3ea015f8	0.3126676
60	0x3e9f8aaa	0.3116048
61	0xbe214b28	-0.15751326
62	0xbf051d28	-0.51997614
63	0x3d086ea4	0.03330864

weight f4 [64, 17]
0	0x3f19b186	0.60036504
1	0x3f406e71	0.7516852
2	0xbdb6479c	-0.08900377
3	0xbea76aac	-0.32698572
4	0xbdb326e4	-0.08747652
5	0xbd524ebb	-0.051344614
6	0x3d970186	0.073733374
7	0x3e1f71f6	0.15570816
8	0x3d482c97	0.04887065
9	0x3e280524	0.16408211
10	0x3ea9050e	0.3301167
11	0xbe083ca7	-0.13304387
12	0x3cd6f4e2	0.026239816
13	0xbdd50e45	-0.10403112
14	0xbdd39e79	-0.10332961
15	0x3e3e537a	0.18586531
16	0xbabf15bf	-0.0014578624
17	0x3f2e463c	0.6807592
18	0x3db3f071	0.08786095
19	0x3f299bc9	0.66253334
20	0xbe378ca8	-0.1792475
21	0x3c53c3e0	0.012925118
22	0x3e49f1b8	0.19721115
23	0x3d451cfa	0.048123337
24	0xbc263e7a	-0.0101467315
25	0xbf292fdc	-0.6608865
26	0xbdbc15f8	-0.09183878
27	0x3df6b0f8	0.12045473
28	0xbf18564b	-0.5950667
29	0x3eb1c983	0.34724054
30	0xbda229c9	-0.07918126
31	0xbb2c9e9c	-0.0026339656
32	0xbcfec861	-0.031101407
33	0x3d41ea67	0.047342684
34	0x3df1440a	0.117805555
35	0x3ff0d077	1.8813618
36	0x3e981702	0.29705054
37	0x3e6f0795	0.23342736
38	0xbe1b12b4	-0.15143853
39	0xbf37c373	-0.71782607
40	0xbe9acef8	-0.3023603
41	0xbe6d3413	-0.23164396
42	0x3e7ec48f	0.24879669
43	0xbdb9ca90	-0.09071839
44	0x3eb412a2	0.35170466
45	0x3ed609d1	0.41804364
46	0x3ef0c76b	0.47027144
47	0x3d67f50d	0.056630183
48	0x3e5e9191	0.21735217
49	0x3e732af2	0.23746851
50	0x3ca3ad04	0.019979961
51	0xbde67501	-0.112527855
52	0xbf61f9b4	-0.8827164
53	0xbea66de7	-0.32505724
54	0x3e640be6	0.22270164
55	0xbe122569	-0.14272083
56	0x3f4f0015	0.808595
57	0x3ec05a41	0.37568858
58	0x3e1bbf5d	0.15209718
59	0xbebffc6d	-0.37497273
60	0x3d945ae4	0.072438985
61	0x3e7daa73	0.24772052
62	0xbde746aa	-0.11292775
63	0xbcf67452	-0.030084763
64	0x3dc5a6c1	0.096509464
65	0xbdaf6803	-0.085647605
66	0x3e526d9b	0.20549624
67	0x3cb288d2	0.021793757
68	0xbea5e438	-0.3240068
69	0xbfb4118d	-1.4067856
70	0x3d52cea6	0.051466607
71	0xbe45e473	-0.19325428
72	0xbdb5fc30	-0.088859916
73	0xbed8c5ca	-0.423384
74	0xbe884d33	-0.26621398
75	0xbe45692c	-0.19278401
76	0xbedb9937	-0.4289033
77	0xbf14dc8a	-0.58149016
78	0xbf1808a5	-0.5938819
79	0x3c82a8ec	0.015949689
80	0xbe8de1f0	-0.2771144
81	0xbd416d97	-0.047223654
82	0xbf38bfaa	-0.72167456
83	0xbf174874	-0.5909493
84	0xbceac8a2	-0.028660122
85	0xbe0dd2d9	-0.13849963
86	0x3c297824	0.010343585
87	0xbd53008f	-0.051514205
88	0x3e994dd4	0.2994219
89	0x3e048156	0.12939963
90	0xbe62afbf	-0.22137354
91	0x3da792e6	0.081823155
92	0x3df6d176	0.1205167
93	0xbf5450ee	-0.8293599
94	0x3ea476ce	0.3212189
95	0x3d484424	0.04889311
96	0x3e9a2fc3	0.30114564
97	0x3ea8e0e3	0.32984075
98	0x3db1ef48	0.086882174
99	0x3e873323	0.26406202
100	0xbe2162b2	-0.15760306
101	0xbde792b3	-0.113072775
102	0xbe2de005	-0.16979988
103	0x3f52e8b4	0.82386327
104	0xbd6ed0e9	-0.0583047
105	0x3e6b0ddd	0.22954507
106	0xbd14a066	-0.03628578
107	0xbd43dd3f	-0.04781842
108	0x3e21da41	0.15805914
109	0x3da3753e	0.079813465
110	0x3e5c5951	0.21518447
111	0x3dc5e49f	0.09662747
112	0x3e9e84cf	0.309607
113	0x3d85dc4e	0.065361604
114	0x3eb257ac	0.34832513
115	0x3c8fd42c	0.017557226
116	0x3ecb39b4	0.39692461
117	0x3e81ac5b	0.2532681
118	0xbd77b42a	-0.060474552
119	0x3f383bef	0.7196645
120	0x3f303862	0.68836033
121	0xbd6ef7ac	-0.058341667
122	0xbe99dff7	-0.30053684
123	0x3e8af20e	0.27137798
124	0x3e152be7	0.14567529
125	0x3e456f90	0.19280839
126	0x3d5b8de4	0.053602114
127	0xbdf93d68	-0.121699154
128	0xbef4aa33	-0.47786102
129	0xbdc1cf5c	-0.09463379
130	0x3e968712	0.29399925
131	0x3e4df124	0.20111519
132	0xbe659642	-0.224206
133	0xbe858f86	-0.26086062
134	0xbee3ffed	-0.44531193
135	0x3e07e898	0.13272321
136	0xbe88ed89	-0.26743725
137	0xbe108556	-0.14113364
138	0xbdd9c2e2	-0.10632874
139	0xbedbb49b	-0.4291123
140	0xbddb1cfa	-0.10698886
141	0xbc2dbb98	-0.010603808
142	0xbdbef3d8	-0.09323853
143	0xbe12070d	-0.14260502
144	0x3f3ee904	0.74574304
145	0x3f2d9830	0.67810345
146	0xbe538487	-0.20656024
147	0x3ee0d783	0.43914422
148	0x3d3e7800	0.04650116
149	0x3cd695d2	0.026194487
150	0x3af555b3	0.0018717557
151	0x3d794fd5	0.06086715
152	0xbd307f53	-0.043090176
153	0x401cae51	2.4481394
154	0x3eac6d44	0.33677113
155	0xbdc0fd23	-0.09423282
156	0x3e308b09	0.17240538
157	0x3c09e14b	0.00841553
158	0x3ebe3bba	0.37154943
159	0xbdcd396f	-0.1002072
160	0x3bbdcd1a	0.0057922723
161	0xbecf9650	-0.40544367
162	0x3eab4676	0.33452195
163	0x3dc86158	0.09784192
164	0xbe7da259	-0.24768962
165	0xbe661ed6	-0.224727
166	0xbd084041	-0.033264402
167	0xbe2a32ab	-0.16620891
168	0x3d3b26bc	0.045691237
169	0xbd1b9f5e	-0.03799378
170	0xbd962c8a	-0.07332714
171	0x3f20e1bc	0.62844443
172	0x3dfbf1a0	0.12301946
173	0x3c563cd2	0.013076024
174	0x3d2ef0a6	0.04270997
175	0xbe04cf6e	-0.12969753
176	0xbcef3fb4	-0.02920518
177	0xbda243a5	-0.079230584
178	0x3f3059b2	0.68886864
179	0x3ddea417	0.108711414
180	0x3e83fa84	0.25777066
181	0xbef793d6	-0.48354977
182	0x3ec13065	0.37732235
183	0xbc5f391a	-0.013624454
184	0xbc92b284	-0.017907389
185	0xbd96e828	-0.07368499
186	0x3cfab834	0.030605413
187	0x3e99cafc	0.30037677
188	0x3e3f9557	0.18709312
189	0xbd320d89	-0.04346994
190	0xbf1b9eec	-0.6078937
191	0xbd3dfef9	-0.04638574
192	0x3f4d8f72	0.80297005
193	0x3f1a25c7	0.60213894
194	0x3e6845f6	0.22682938
195	0x3e0e0e45	0.13872631
196	0x3ed292cd	0.41127625
197	0xbec86b2a	-0.3914426
198	0x3e25b057	0.1618055
199	0x3d22880b	0.039680522
200	0x3dc3571a	0.09538098
201	0xbf71cd5d	-0.94453984
202	0xbef81e68	-0.48460698
203	0xbda6b1c0	-0.08139372
204	0x3e2040f9	0.15649785
205	0x3f04aeb4	0.51829076
206	0xbe37af82	-0.17938045
207	0x3e012366	0.1261116
208	0xbe954c32	-0.29159695
209	0xbe049ea3	-0.1295114
210	0x3e138e5b	0.14409773
211	0x3d9e1856	0.077194855
212	0x3e2119b7	0.15732466
213	0x3e787200	0.24262238
214	0x3d0b5ca2	0.03402389
215	0x3bc933b2	0.0061401958
216	0xbe3f9095	-0.18707497
217	0x3c4c4b57	0.012469134
218	0x3e0d6444	0.1380778
219	0x3dd5796d	0.10423551
220	0x3dbcb687	0.09214502
221	0xbea66b96	-0.32503957
222	0xbf917ca9	-1.1366168
223	0x3e27f2ff	0.1640129
224	0x3e72141f	0.23640488
225	0xbd9504ae	-0.07276283
226	0x3e791d99	0.24327697
227	0x3ccbd662	0.0248825
228	0xbdea3e36	-0.11437647
229	0xbedbe25f	-0.42946145
230	0x3ea0954c	0.31363904
231	0xbd95c687	-0.07313257
232	0xbe7de6ee	-0.24795124
233	0xbf317a1d	-0.69326955
234	0x3d14fc0c	0.036373183
235	0xbf1761b8	-0.5913348
236	0x3e1ae48e	0.15126249
237	0x3cf18028	0.029480055
238	0x3dba331d	0.0909178
239	0xbefb3139	-0.4906099
240	0x3e96583f	0.293642
241	0xbda686e6	-0.081311986
242	0xbe017dcc	-0.12645644
243	0x3efd43a0	0.49465656
244	0xba0f23e6	-0.00054603664
245	0xbd8dec47	-0.06929832
246	0xbf211a71	-0.6293097
247	0xbe21343c	-0.15742582
248	0x3eea8ea7	0.4581196
249	0x3dd3b291	0.10336793
250	0x3ec31d1c	0.38108146
251	0xbdf17e01	-0.117916115
252	0x3f242c66	0.64130247
253	0x3e373979	0.17893018
254	0x3d9c2a5d	0.07625268
255	0xbb750900	-0.0037389398

bias f4 [64]
0	0x3ead590d	0.33857003
1	0x3e47630f	0.19471382
2	0x3ed99273	0.42494544
3	0xbf194501	-0.59870917
4	0x3d0fffc5	0.03515603
5	0xbea4cd9e	-0.32188123
6	0x3fdbe706	1.7179878
7	0xbe96ff13	-0.2949148
8	0xbf666178	-0.89992476
9	0x3f651f16	0.8950056
10	0x3fcaf7ba	1.585685
11	0x3f359806	0.70935094
12	0x3f368f11	0.7131205
13	0x3ea68ad4	0.32527792
14	0xbf82dd19	-1.0223724
15	0x3e88c221	0.2671061
16	0xbfa52b5e	-1.290386
17	0xbf5b6cff	-0.8571319
18	0xbf1d9ad4	-0.61564374
19	0xbef524ef	-0.4787974
20	0xbe41e575	-0.18935187
21	0x3f9cf5be	1.2262495
22	0xbc26a963	-0.010172221
23	0x3f71b697	0.94419235
24	0xbfa43f3d	-1.2831799
25	0xbfaaf4cd	-1.3355957
26	0xbf64cbcf	-0.8937349
27	0x3fde0b48	1.7347193
28	0x3e865152	0.26233917
29	0x3ee9c8ec	0.45661104
30	0xbd6e1e29	-0.05813423
31	0x3eb9c99b	0.36286625
32	0xbed1c1e5	-0.40968242
33	0x3fb16b2f	1.3860835
34	0xbe0a91cc	-0.1353218
35	0xbf0c8f81	-0.5490647
36	0xbec975f5	-0.39347807
37	0x3f3d8aff	0.74040216
38	0xbf18df9f	-0.5971622
39	0x3f774460	0.96588707
40	0xbd27813a	-0.040894724
41	0xbf5cd151	-0.8625689
42	0xbfa7fcaf	-1.3123988
43	0x3f908e08	1.1293344
44	0xbe561249	-0.20905413
45	0xbf65e665	-0.8980468
46	0xbf841451	-1.03187
47	0x3e8a6a24	0.27034104
48	0xbe5fa135	-0.2183884
49	0xbf0f372f	-0.5594358
50	0xbf89c1e8	-1.07623
51	0xbf75954c	-0.95930934
52	0xbf6a1e4c	-0.9145248
53	0x3fdfe428	1.7491503
54	0x3e58459f	0.21120308
55	0xbefb38aa	-0.4906667
56	0x3f6555e2	0.8958417
57	0xbf80ee40	-1.0072708
58	0xbf2bff76	-0.6718668
59	0x3e44c0fe	0.19214246
60	0x3ec02ac4	0.37532628
61	0x3ebcbcac	0.36862695
62	0xbf87a3bb	-1.0596842
63	0xbf489426	-0.78351057

weight f4 [64, 64]
0	0x3e58cbfa	0.21171561
1	0x3d1179be	0.035516493
2	0xbe30d39b	-0.17268221
3	0x3c8bd378	0.01706861
4	0xbe6eca0c	-0.23319262
5	0xbeeea0c2	-0.46607023
6	0xbf2919f5	-0.6605523
7	0x3d487d1f	0.04894745
8	0x3e3fc8f2	0.18728998
9	0xbd4653a9	-0.04841963
10	0xbcaa61cd	-0.020798588
11	0x3e1b3542	0.15157035
12	0xbe85bf98	-0.26122737
13	0x3d5c150d	0.053731013
14	0xbea6f837	-0.32611248
15	0xbeac7ca6	-0.3368885
16	0x3f09f9c0	0.53896713
17	0x3ea03b35	0.3129517
18	0x3e5695b7	0.20955549
19	0x3ddf576e	0.10905348
20	0x3da885f2	0.08228673
21	0xbe494a6c	-0.19657296
22	0x3e4f5f14	0.20251113
23	0xbed55488	-0.41666055
24	0x3e582a24	0.21109825
25	0x3e5f7dc4	0.2182532
26	0x3e65412e	0.22388145
27	0xbf0505a2	-0.5196172
28	0x3ded516f	0.11587798
29	0xbf34e5be	-0.7066306
30	0x3d468947	0.04847076
31	0x3da47b2a	0.08031304
32	0x3e5297f9	0.20565785
33	0xbeb606b6	-0.35551995
34	0xbda74c7c	-0.08168885
35	0xbc1d8264	-0.009613607
36	0x3ce4f282	0.027947668
37	0xbd31d302	-0.043414123
38	0x3c6d822b	0.0144963665
39	0x3cd9336e	0.026513781
40	0xbd03c4e1	-0.03217018
41	0x3de58064	0.11206129
42	0x3f09652c	0.5367
43	0xbea3b881	-0.31976703
44	0x3d8af535	0.06785051
45	0x3cd47e69	0.025939183
46	0x3eb4c047	0.35302946
47	0xbdad7fd8	-0.0847165
48	0x3d14b542	0.036305673
49	0xbe23e9c9	-0.1600715
50	0x3ee2ed80	0.44321823
51	0x3f0bb01e	0.5456561
52	0x3ed9bedd	0.4252843
53	0x3de831a0	0.1133759
54	0x3d078b5b	0.033091884
55	0xbec23102	-0.37928015
56	0xbdc1ea66	-0.09468536
57	0x3eae188e	0.3400311
58	0x3ee11577	0.4396169
59	0x3c657337	0.01400452
60	0xbe818ea8	-0.2530415
61	0xbea42c02	-0.32064825
62	0x3f0fd250	0.56180286
63	0x3e04a6bc	0.12954229
64	0xbd854421	-0.06507135
65	0xbeb95475	-0.36197248
66	0xbe547513	-0.20747785
67	0x3d965140	0.07339716
68	0xbeb60efd	-0.3555831
69	0x3dbae0e1	0.091249235
70	0xbe0bad62	-0.13640359
71	0xbc3bda38	-0.011465602
72	0x3e4e3cde	0.20140406
73	0x3dff9c92	0.12481035
74	0x3bf135d9	0.0073611555
75	0xbee76978	-0.45197654
76	0x3e0e22e0	0.13880491
77	0x3d115ad7	0.035487022
78	0xbdaa4cc4	-0.08315423
79	0xbe9c4b23	-0.30526075
80	0xbdb17dc8	-0.08666569
81	0x3c2ecdca	0.010669181
82	0x3d62a66a	0.055334486
83	0xbe9bde77	-0.30443165
84	0x3e2d3f6e	0.16918728
85	0xbe861857	-0.26190445
86	0x3d889722	0.06669451
87	0xbd1c1f27	-0.038115647
88	0xbd9d4e6b	-0.07680973
89	0x3dd573a9	0.10422451
90	0x3e30154d	0.17195626
91	0x3d3d9e5b	0.046293598
92	0xbea0c438	-0.31399703
93	0x3d5f898f	0.054574545
94	0x3e1ef01f	0.15521286
95	0x3cf2331f	0.029565392
96	0x3d86c7fc	0.06581113
97	0x3e53ad7b	0.20671646
98	0x3c73483a	0.014848763
99	0xbe198f14	-0.14995986
100	0xbb1302bb	-0.0022432047
101	0xbe1e145c	-0.15437454
102	0x3dfb2cbe	0.12264393
103	0xbe3c6750	-0.18398786
104	0x3ca74a5d	0.020421201
105	0xbb8ea7f7	-0.004353519
106	0x3e866beb	0.2625421
107	0x3e2831f1	0.16425301
108	0xbcc11f94	-0.023574628
109	0x3dd7e4b9	0.10541672
110	0x3d40ba62	0.04705275
111	0xbdabc3b8	-0.0838694
112	0xbdc80610	-0.09766781
113	0xbe5fe9fb	-0.218666
114	0x3e5363a2	0.20643476
115	0xbda543a6	-0.080695435
116	0x3e1924ba	0.14955416
117	0xbf2cf856	-0.6756643
118	0xbed5ba1a	-0.41743547
119	0x3e4e0714	0.20119888
120	0xbde00026	-0.10937528
121	0x3e180efa	0.14849463
122	0xbe8d4d31	-0.27597955
123	0x3cddddeb	0.027083358
124	0xbe8f289e	-0.27960676
125	0x3e2e0561	0.1699424
126	0x3d87495e	0.066057906
127	0xbd7d0566	-0.061772726
128	0xbf18026c	-0.59378695
129	0x3d3ca0f2	0.046051927
130	0xbeeb10db	-0.45911297
131	0x3e93e783	0.28887567
132	0xbc7a7582	-0.015286805
133	0x3e6133ab	0.21992366
134	0x3d890fe1	0.06692482
135	0xbe999e16	-0.30003422
136	0xbe376292	-0.17908695
137	0xbe0a0512	-0.13478497
138	0x3e1866a8	0.1488291
139	0xbf149ab8	-0.5804858
140	0x3d027af5	0.031855542
141	0xbe26b817	-0.16281162
142	0xbc9e9c33	-0.019361591
143	0x3e118ed8	0.14214647
144	0x3e9be9e1	0.30451873
145	0xbd9f4ea0	-0.077786684
146	0x3e3b3491	0.18281771
147	0xbd8e7665	-0.06956176
148	0xbda32083	-0.079651855
149	0xbe0454bc	-0.12922949
150	0x3d7c05e9	0.061529074
151	0x3e402ea3	0.1876779
152	0xbe390a15	-0.18070252
153	0xbe5326d0	-0.20620275
154	0xbdfa22e4	-0.12213686
155	0x3e84f38a	0.25967056
156	0xbed90166	-0.4238388
157	0xbe9fa5f4	-0.311813
158	0xbd7d8515	-0.061894495
159	0x3efa2674	0.48857462
160	0xbec7527c	-0.38930118
161	0x3e1535d8	0.14571321
162	0x3de93a54	0.11388078
163	0xbc30d5cf	-0.010793163
164	0xbdb6e648	-0.089306414
165	0x3e3a2634	0.18178636
166	0xbe439fb7	-0.19103895
167	0x3cfa8986	0.030583154
168	0xbeb2cf42	-0.3492375
169	0x3e2dc705	0.16970451
170	0x3e892b0d	0.26790658
171	0xbdb6d0a6	-0.08926515
172	0x3e15f45b	0.14643995
173	0x3e4930bb	0.19647495
174	0x3e0df5a8	0.13863242
175	0x3ceb3629	0.028712349
176	0xbd415d1d	-0.04720794
177	0xbee92292	-0.45534188
178	0xbf337150	-0.70094776
179	0x3f0b2cae	0.5436505
180	0x3dad738b	0.08469304
181	0xbf09fe95	-0.53904086
182	0xbe431827	-0.19052182
183	0x3ebff73b	0.3749331
184	0x3edf3ca6	0.4360096
185	0xbed10ef8	-0.40831733
186	0x3d90349b	0.07041284
187	0x3ea5acc6	0.32358378
188	0xbece2857	-0.40265152
189	0xbe451b07	-0.19248591
190	0x3d132090	0.035919726
191	0xbe88a389	-0.26687267
192	0x3e880e48	0.26573396
193	0xbd8386e1	-0.064222105
194	0x3ea9ffec	0.33203065
195	0x3d53ade9	0.051679526
196	0x3f0355fe	0.5130309
197	0xbe7d4b9a	-0.24735871
198	0x3ea52227	0.3225262
199	0xbe149feb	-0.14514129
200	0xbe009d41	-0.12559988
201	0x3c87b3b9	0.01656519
202	0x3e4923aa	0.19642511
203	0x3d747b00	0.059687614
204	0x3dd8f622	0.10593821
205	0x3ed4d31f	0.41567323
206	0xbe6cba73	-0.23118
207	0xbda60dae	-0.08108078
208	0xbe9c34d1	-0.30509046
209	0xbeb22e69	-0.34801033
210	0xbd90a452	-0.070625916
211	0x3d9e7c1f	0.07738518
212	0xbce76f76	-0.02825139
213	0x3f142555	0.57869464
214	0xbddc3e45	-0.107540645
215	0x3f0bbe09	0.54586846
216	0xbf98807a	-1.1914208
217	0xbec0d597	-0.37662956
218	0xbebd0853	-0.36920413
219	0x3f012d80	0.5046005
220	0xbe32331b	-0.17402308
221	0xbf119324	-0.56865144
222	0x3da6307a	0.08114715
223	0xbd967fbd	-0.07348583
224	0xbe0334fd	-0.12813182
225	0x3e731e67	0.23742066
226	0x3e36b75b	0.17843382
227	0xbcceed05	-0.025259504
228	0xbd509cf8	-0.050930947
229	0xbe72204b	-0.23645131
230	0xbf03452f	-0.5127744
231	0x3ef9bed7	0.48778412
232	0xbed202d7	-0.41017792
233	0xbc7013a4	-0.01465312
234	0xbe072e9b	-0.13201372
235	0x3eb637a1	0.35589316
236	0xbd239c4b	-0.039943974
237	0xbe4ab693	-0.19796209
238	0xbe002e43	-0.12517647
239	0x3b804da5	0.003915506
240	0x3e7df4eb	0.2480046
241	0x3d96bc21	0.073601015
242	0xbec888d9	-0.39166906
243	0xbe9c21f1	-0.30494645
244	0xbef4be49	-0.47801426
245	0x3e280013	0.16406278
246	0xbe80ae2f	-0.25132892
247	0x3e9c9404	0.30581677
248	0x3e2ea0ef	0.17053579
249	0x3cf8b7d1	0.030361088
250	0xbe26a5db	-0.16274206
251	0x3d1073e1	0.03526676
252	0xbc576a20	-0.013147861
253	0x3ea84bac	0.32870233
254	0xbee62878	-0.4495275
255	0xbeb0c527	-0.34525415

bias f4 [64]
0	0xbefdfb23	-0.49605665
1	0x3ecfa2cf	0.405539
2	0x3ee0b6b7	0.438894
3	0x3ebaa76f	0.36455867
4	0xbf07fb3b	-0.5311772
5	0xbef36907	-0.47541067
6	0x3ebcd2cc	0.36879575
7	0x3de0c073	0.10974207
8	0xbe8dcf5b	-0.27697262
9	0xbeffee52	-0.4998651
10	0x3dd437bb	0.10362192
11	0x3e7c6e1c	0.24651378
12	0xbe849c20	-0.25900364
13	0x3e65a1a4	0.22424942
14	0x3d6a58bd	0.057213534
15	0xbec82f0f	-0.39098403
16	0x3ef8ed62	0.4861861
17	0xbf24e232	-0.64407647
18	0xbe9d3190	-0.30701876
19	0xbe3bde1c	-0.18346447
20	0x3e5a1d30	0.21300197
21	0xbebc7206	-0.36805743
22	0xbe8512b3	-0.2599083
23	0xbe90dc9b	-0.2829331
24	0x3e0f1d28	0.13975966
25	0xbea5347b	-0.32266602
26	0xbe1c2082	-0.15246776
27	0x3cfd898b	0.030949375
28	0xbe8a5a33	-0.27021942
29	0x3e4349d5	0.19071133
30	0x3e28d387	0.16486941
31	0x3ea68a46	0.3252737
32	0x3eec1b24	0.46114457
33	0x3e82d3ff	0.25552365
34	0x3e6d5ba9	0.23179497
35	0x3e897137	0.2684419
36	0x3dffb16e	0.12485014
37	0xbe716f1c	-0.23577541
38	0x3eb7c7f0	0.35894728
39	0xbda92b22	-0.0826018
40	0xbe1e3902	-0.15451434
41	0xbef98814	-0.48736632
42	0x3d3d4af0	0.046214044
43	0xbea9c4a0	-0.33157825
44	0xbdef594d	-0.11686955
45	0x3d03724e	0.03209143
46	0x3e79ba41	0.24387456
47	0xbe97176e	-0.29510063
48	0xbe3e3924	-0.18576485
49	0x3ea54724	0.32280838
50	0xbe72205b	-0.23645155
51	0xbec1d01c	-0.37854087
52	0x3cc4f0a1	0.024040522
53	0xbe045b55	-0.12925465
54	0x3e4a0718	0.19729269
55	0xbebc777b	-0.36809906
56	0xbe8dd91f	-0.27704713
57	0x3ec0005e	0.3750028
58	0x3e507c1d	0.20359845
59	0x3e0ede53	0.13951997
60	0xbe3dcbcf	-0.18534778
61	0x3ee17759	0.44036368
62	0xbe2f7272	-0.17133501
63	0x3ea61b29	0.32442597

weight f4 [1, 64]
0	0x3e05fdf9	0.13085164
1	0x3c57d19b	0.013172532
2	0xbcb35209	-0.021889703
3	0x3e9aaf7c	0.3021201
4	0x3e0c8378	0.13722026
5	0xbc702395	-0.014656921
6	0x3c81bd4b	0.015837332
7	0xbc8f0ca9	-0.017462092
8	0xbc847b6a	-0.01617213
9	0xbed88cb6	-0.42294854
10	0xbcd514da	-0.02601092
11	0xbd2ac791	-0.041694228
12	0x3af70b48	0.0018847967
13	0x3e39b9f1	0.18137337
14	0x3d2999fd	0.04140662
15	0x3d7e173e	0.062033884
16	0x3ebd0142	0.36915022
17	0xbc1d5815	-0.00960352
18	0xbec22e9d	-0.37926188
19	0xbd4321fd	-0.047639836
20	0xbd8518cd	-0.06498871
21	0x3c97d4c7	0.018534077
22	0xbe42a754	-0.19009143
23	0x3c3557d7	0.011068306
24	0x3c9e15e1	0.019297542
25	0x3c73c98a	0.014879594
26	0x3e7592a5	0.23981722
27	0x3db8d023	0.09024074
28	0xbbbcebe9	-0.0057654274
29	0x3da2afee	0.07943712
30	0x3b1fd1ff	0.0024386642
31	0xbbe51f7d	-0.006992279
32	0xbd3306a6	-0.043707512
33	0xbd3a4f8a	-0.04548601
34	0xbc9070d4	-0.017631926
35	0x3d08094c	0.03321199
36	0x3ca2b20d	0.019860292
37	0x3d5bf7fa	0.053703286
38	0x3d7a525f	0.06111371
39	0xbca115f3	-0.019663787
40	0xbbb029b0	-0.0053760633
41	0xbca29d2a	-0.019850332
42	0x3d758f30	0.059951007
43	0xbb275ffa	-0.0025539384
44	0xbbaf808e	-0.005355901
45	0x3d442c21	0.047893647
46	0x3d1f0f99	0.038833234
47	0xbaf58493	-0.0018731527
48	0xbeb8c2bc	-0.3608607
49	0xbe03e68f	-0.1288092
50	0x3d833ba8	0.06407863
51	0x3b89a55d	0.004200621
52	0x3eb55719	0.35418013
53	0x3ca92c5b	0.020651033
54	0x3c3cdf37	0.011527828
55	0xbc409e3d	-0.011756477
56	0x3d03c469	0.032169733
57	0xbe90a5eb	-0.28251585
58	0xbd9cdfbc	-0.076598614
59	0xbc1ab67b	-0.009442921
60	0x3cb284f3	0.02179191
61	0xbea34689	-0.31889752
62	0xbe07a06b	-0.13244788
63	0xbb2c794c	-0.0026317416

weight f4 [6, 64]
0	0xbee55dd1	-0.4479814
1	0xbd62abc5	-0.055339593
2	0x3e15b0ab	0.14618175
3	0x3e29d1e3	0.16583972
4	0x3df009cd	0.11720619
5	0xbe2f828f	-0.17139648
6	0xbb111b70	-0.0022141598
7	0x3d1f3b00	0.038874626
8	0x3d578a5e	0.05262219
9	0xbe8fa818	-0.28057933
10	0xbd580bda	-0.052745678
11	0x3e0880c4	0.1333037
12	0xbe4813d5	-0.19538815
13	0xbc7ec58e	-0.01555003
14	0xbe1b9ae1	-0.151958
15	0x3e353069	0.17694248
16	0x3e3d4efb	0.1848716
17	0xbe08d818	-0.13363683
18	0x3e0b0a8d	0.13578244
19	0xbe53a763	-0.20669322
20	0x3d9251e6	0.07144527
21	0x3dab3fa9	0.083617516
22	0xbca30422	-0.019899432
23	0x3ec9e20a	0.39430267
24	0xbd9522e7	-0.07282048
25	0xbd81682a	-0.06318696
26	0x3ce12efe	0.027488228
27	0xbe3a50de	-0.18194911
28	0x3d2544bb	0.04034875
29	0xbe12f2ef	-0.14350484
30	0xbe7921d1	-0.24329306
31	0xbd8d4878	-0.06898588
32	0x3e29279b	0.16519015
33	0xbdb2d213	-0.08731475
34	0xbc967ef4	-0.018371083
35	0xbde7facc	-0.113271326
36	0x3b103f53	0.00220104
37	0xbd80acc4	-0.062829524
38	0x3cb847a7	0.022495104
39	0xbd2d8496	-0.042362772
40	0x3dcc316b	0.09970363
41	0xbd051b42	-0.0324967
42	0x3e8d1b7b	0.27560028
43	0x3dc53299	0.09628791
44	0xbd906cab	-0.07051977
45	0x3dea7a1d	0.114490725
46	0xbe04c2c7	-0.12964927
47	0xbdafeb11	-0.08589757
48	0xbcd46ea2	-0.02593166
49	0x3d2f2133	0.04275627
50	0x3c39b066	0.011333561
51	0x3c92670e	0.017871406
52	0x3daa8cd3	0.08327641
53	0xbe07b8c5	-0.13254078
54	0x3d847073	0.064667605
55	0xbe9e357b	-0.30900177
56	0xbdddd4ee	-0.10831629
57	0xbe2447bd	-0.16042991
58	0xbd2cc5b9	-0.04218075
59	0x3db35132	0.08755721
60	0xbd269d37	-0.040677276
61	0x3e973f69	0.29540566
62	0x3e51dfe9	0.20495571
63	0x3dfd1496	0.12357442
64	0x3ea6f017	0.3260505
65	0xbca0ba59	-0.019620107
66	0x3dcf7962	0.10130574
67	0xbe29fcdd	-0.16600366
68	0xbd1eef6d	-0.038802553
69	0x3ba762a4	0.0051081944
70	0x3e0df8ad	0.13864394
71	0x3d38df52	0.04513485
72	0x3e090500	0.13380814
73	0xbe287765	-0.16451795
74	0xbd2f3f55	-0.042785008
75	0x3cd7f59a	0.02636223
76	0x3c475898	0.0121671185
77	0xbca7db76	-0.02049039
78	0x3e47f8aa	0.19528452
79	0xbdf8eaef	-0.12154185
80	0x3d2ce4e1	0.042210463
81	0xbd9e02fc	-0.07715413
82	0xbcc48340	-0.023988366
83	0x3e265574	0.16243535
84	0x3d972af9	0.07381243
85	0x3e7dda0b	0.24790208
86	0xbe3266bd	-0.17422004
87	0xbe0c1f61	-0.13683845
88	0x3e2c9554	0.16853839
89	0x3d995257	0.07486408
90	0xbdbe5c74	-0.09294978
91	0x3e79b507	0.24385463
92	0xbd36953e	-0.044575922
93	0x3d942287	0.07233148
94	0x3d94f001	0.072723396
95	0x3e204a71	0.15653397
96	0xbe656bc8	-0.22404397
97	0x3df176dd	0.117902495
98	0xbd8bc966	-0.06825523
99	0x3e0f65f7	0.1400374
100	0x3e35a2f4	0.17737943
101	0x3da74431	0.08167303
102	0xbd8fc8ce	-0.07020722
103	0x3e51e283	0.20496564
104	0xbd852570	-0.06501281
105	0x3c865c8f	0.016401557
106	0xbe4f699a	-0.20255128
107	0xbd67c790	-0.056586802
108	0x3d013de0	0.03155315
109	0xbe0ffbe9	-0.1406094
110	0x3e7c369f	0.24630211
111	0x3e06c796	0.13162073
112	0x3da4b9ae	0.08043228
113	0xbda83d3a	-0.08214803
114	0x3ddde1db	0.10834094
115	0x3b180d7d	0.00232014
116	0xbe1c311e	-0.15253112
117	0x3d95d806	0.07316594
118	0x3e1632e4	0.1466785
119	0x3d1dc113	0.038514208
120	0x3e24db7e	0.16099355
121	0x3da050c8	0.07827908
122	0xbc8880e1	-0.016663017
123	0xbdd930e2	-0.10605027
124	0x3e5bc7e1	0.21462967
125	0xbe23115d	-0.15924592
126	0xbe3b0280	-0.18262672
127	0xbc0126a0	-0.007882744
128	0x3d4a80bb	0.049439173
129	0xbe6fbe1c	-0.23412365
130	0x3d82be76	0.06383984
131	0xbcb35e5b	-0.021895578
132	0x3db4e00f	0.08831798
133	0x3e3237e6	0.17404136
134	0x3cb0f0b7	0.021599157
135	0x3e052d00	0.13005447
136	0x3d5f8885	0.054573555
137	0xbe3a12b1	-0.18171193
138	0x3dfcdc89	0.12346751
139	0x3e7685a7	0.24074422
140	0x3d814cfc	0.06313512
141	0x3cf798eb	0.030224284
142	0xbda83eb7	-0.08215087
143	0xbd383960	-0.044976592
144	0xbd92d41f	-0.07169365
145	0x3dc7f29f	0.09763073
146	0x3cb9ed6f	0.022696225
147	0x3dbedc48	0.09319359
148	0xbe1118b0	-0.14169574
149	0x3e189039	0.14898767
150	0x3b825200	0.0039770603
151	0x3c8b3ebe	0.016997691
152	0xbe9b9957	-0.30390427
153	0xbda1bf1e	-0.07897781
154	0x3e036130	0.12830043
155	0x3ea651c4	0.32484257
156	0x3e0ae069	0.13562168
157	0x3c957a51	0.018246802
158	0xbc6a7efa	-0.0143125
159	0xba8d6483	-0.0010787401
160	0x3de127f2	0.10993947
161	0x3dfcefa8	0.12350398
162	0xbd0368cb	-0.03208236
163	0x3e986a48	0.29768586
164	0xbc12b16a	-0.008953432
165	0x3d162c6c	0.036663458
166	0xbd1d88fc	-0.038460717
167	0x3c0434e4	0.008069251
168	0xbe01051b	-0.12599604
169	0x3e052007	0.13000499
170	0xbdac2170	-0.08404815
171	0xbdce70e4	-0.10080126
172	0x3dc8494c	0.09779605
173	0xbb7b1d49	-0.0038317016
174	0x3e91901b	0.28430256
175	0xbc849798	-0.016185567
176	0x3d23e780	0.040015697
177	0xbe07d598	-0.13265073
178	0x3e0bb88e	0.13644621
179	0xbdf7dae0	-0.12102294
180	0x3b897514	0.004194865
181	0x3d4486a8	0.04797998
182	0x3d8e35a8	0.06943828
183	0xbd117830	-0.03551501
184	0x3b3a03b1	0.0028383548
185	0xbdbc4a62	-0.09193875
186	0x3e5460bf	0.2074003
187	0x3e15f4c8	0.14644158
188	0xbc654b21	-0.013994963
189	0xbe37fd95	-0.17967828
190	0x3e1bfb5b	0.15232603
191	0x3dba8224	0.091068536
192	0x3da3f957	0.08006542
193	0x3d7f8c55	0.06238969
194	0x3d9ee621	0.07758737
195	0xbdb174f0	-0.08664882
196	0x3d8b632e	0.068060264
197	0x3db9d6fc	0.09074208
198	0xbcb0175e	-0.021495517
199	0x3db45bec	0.08806595
200	0x3d054105	0.03253271
201	0x3ba974f7	0.005171414
202	0x3e32413f	0.17407702
203	0xbcfcf78a	-0.030879755
204	0xbacf13bb	-0.0015798727
205	0x3e24dcb3	0.16099815
206	0xbd811fd0	-0.06304896
207	0x3d555dfe	0.05209159
208	0xbdf346e0	-0.11878753
209	0x3da4744d	0.08029995
210	0x3e2a4de7	0.1663128
211	0xbe92c3e4	-0.28665078
212	0x3cbb4391	0.022859367
213	0xbbb467f7	-0.0055055576
214	0x3e02d622	0.12776998
215	0x3e21a84b	0.15786855
216	0xbdb06381	-0.08612729
217	0xbecc5799	-0.39910582
218	0x3e6b30d5	0.22967847
219	0xbead09ac	-0.33796442
220	0x3eb2fc86	0.34958285
221	0xbd436816	-0.047706686
222	0xbe2edc0b	-0.17076127
223	0x3d13dd9d	0.03610002
224	0x3defcbc3	0.11708786
225	0x3db89b8b	0.090140425
226	0x3e19939d	0.14997716
227	0x3c63aa00	0.013895512
228	0xbe26cc37	-0.1628884
229	0x3d5e49e7	0.054269698
230	0x3dbc2756	0.0918719
231	0x3c9c1af2	0.019055817
232	0x3d996ead	0.07491813
233	0xbe4ea530	-0.20180202
234	0x3e0c26eb	0.13686721
235	0x3da4d7fe	0.0804901
236	0x3db44650	0.088024735
237	0xbe513c96	-0.20433268
238	0xbe9a8c92	-0.30185372
239	0xbd9e6d44	-0.077356845
240	0xbdd76f38	-0.1051926
241	0x3dd26691	0.10273469
242	0xbd85b9e9	-0.065296
243	0x3cb6e832	0.022327516
244	0x3d72fa28	0.0593206
245	0xbe2290c1	-0.15875532
246	0xbd24badb	-0.04021726
247	0xbbb75505	-0.005594852
248	0x3d3bfe22	0.045896657
249	0x3deb2358	0.11481351
250	0x3e8c0354	0.2734629
251	0x3d970088	0.07373148
252	0xbdd3693f	-0.103228085
253	0xbcd952e0	-0.026528776
254	0x3d107f9c	0.035277948
255	0xbdc8490c	-0.097795576

bias f4 [6]
0	0xbbc60e5f	-0.0060441936
1	0xbdfb42eb	-0.12268623
2	0x3e3b120e	0.18268606
3	0x3d065911	0.032799784
4	0x3d0963b0	0.033542335
5	0xbe290a4b	-0.16507833

_bias f4 [6, 1]
0	0xbfe6397e	-1.7986295
1	0xbfc3de30	-1.5302181
2	0xbf79aa3d	-0.9752539
3	0xbff1dbcf	-1.8895205
4	0xbfea6e4c	-1.831491
5	0xbf116a8d	-0.5680321
